model_red.pth (torch, 8109 bytes, 6 tensors)

model.0.weight f4 [32, 1]
0	0xbee90e10	-0.4551854
1	0xbf233d96	-0.6376585
2	0x3f0cd990	0.55019474
3	0x3e2644e8	0.16237223
4	0x3f389d99	0.72115475
5	0x3f5b7251	0.8572131
6	0x3ebdfbdb	0.37106213
7	0x3f1ae5ab	0.60506696
8	0xbf2a6de2	-0.6657392
9	0x3f004b32	0.5011474
10	0xbf56e1a2	-0.8393804
11	0x3f6ab208	0.91677904
12	0xbe68bf80	-0.22729301
13	0xbf1550da	-0.58326495
14	0xbe27dfc8	-0.1639396
15	0x3f0b4caf	0.54413885
16	0xbf655324	-0.8957999
17	0x3ecb4a34	0.3970505
18	0xbf5b5531	-0.85676867
19	0xbf7a6dc9	-0.9782377
20	0xbf6719f6	-0.9027399
21	0xbf7c5eeb	-0.98582333
22	0x3eba8568	0.36429906
23	0x3f79c86b	0.9757144
24	0x3f1c970b	0.61167973
25	0x3f0ac037	0.54199547
26	0xbf5fd662	-0.874365
27	0x3c78b9c5	0.01518101
28	0xbddfd72e	-0.10929714
29	0xbc97f200	-0.018548012
30	0x3e8d0d9f	0.27549455
31	0xbef66112	-0.48120934

model.0.bias f4 [32]
0	0xbeb9c727	-0.36284754
1	0xbf68081a	-0.9063736
2	0xbf50cbc2	-0.8156091
3	0xbee642b4	-0.44972765
4	0xbc33a0e6	-0.010963654
5	0xbeb80e20	-0.35948277
6	0x3f63b000	0.8894043
7	0x3f0d26ac	0.55137134
8	0x3dc549c1	0.09633208
9	0xbf7e63c0	-0.99370956
10	0xbea50663	-0.32231435
11	0xbefbff15	-0.4921805
12	0xbf061660	-0.5237789
13	0x3eec9a72	0.46211582
14	0xbef17fdc	-0.4716786
15	0x3ce48ad4	0.02789823
16	0x3f22358f	0.63362974
17	0xbf6f3dd4	-0.9345372
18	0x3f7c1778	0.9847331
19	0xbbcc9fb9	-0.0062446264
20	0x3f391d47	0.723103
21	0xbed730a7	-0.42029306
22	0x3f8a5936	1.0808475
23	0xbea28567	-0.31742403
24	0xbf1132b4	-0.5671799
25	0x3f892415	1.0714136
26	0xbf32eb01	-0.6988984
27	0x3eb117c5	0.34588447
28	0x3f049cab	0.51801556
29	0xbf532bf4	-0.8248894
30	0xbd99ad79	-0.075037904
31	0xbea08319	-0.3135002

model.2.weight f4 [32, 32]
0	0x3e34e3fb	0.17665093
1	0x3cd47899	0.025936412
2	0xbe234e90	-0.15947938
3	0x3bdbb3fb	0.006704805
4	0x3c8900ac	0.016723953
5	0x3d0a377f	0.03374433
6	0x3dc5dd4b	0.09661349
7	0x3e05cd9d	0.13066716
8	0x3dbac648	0.091198504
9	0x3d70f1cf	0.058824357
10	0x3e4193fc	0.18904108
11	0xbdaf5cfb	-0.085626565
12	0xbe31ceb2	-0.17364004
13	0xbbe1b766	-0.006888318
14	0x3c9426dd	0.018084938
15	0x3e18e0da	0.14929524
16	0xbe0470ac	-0.12933606
17	0x3c0d31b5	0.008617808
18	0x3cf52bc2	0.029928092
19	0x3d2eddb0	0.042691886
20	0x3e0d54e1	0.1380191
21	0xbd6fe65d	-0.0585693
22	0x3cf7dd87	0.030257
23	0x3d3e62e8	0.046481043
24	0xbe228303	-0.1587029
25	0x3e5b8094	0.21435767
26	0xbd93d339	-0.07218022
27	0x3dda2bb0	0.10652864
28	0x3e47de3c	0.1951837
29	0xbe089907	-0.13339625
30	0x3c105f5e	0.0088118
31	0x3d8ea9cf	0.06965982
32	0x3d759b5c	0.059962615
33	0xbe0b336d	-0.13593836
34	0x3d39fa5c	0.045404777
35	0x3de609f1	0.11232365
36	0xbde422bb	-0.11139437
37	0x3dc5600a	0.096374586
38	0xbcc28506	-0.023745071
39	0x3d5eca26	0.054392003
40	0x3cedcd41	0.029028537
41	0x3dc4b7d0	0.09605372
42	0x3d63dc17	0.055629816
43	0xbc33a009	-0.010963448
44	0xbba66ff5	-0.0050792643
45	0xbdf53967	-0.11973839
46	0x3cf949b6	0.030430656
47	0x3e047c55	0.12938054
48	0xbe099a11	-0.13437678
49	0xbdc29fa9	-0.09503109
50	0xbe23cef2	-0.15996912
51	0xbcc63223	-0.024193829
52	0x3d20c9fd	0.03925513
53	0xbdfe0757	-0.12403744
54	0xbda52db1	-0.080653556
55	0x3cbde1ec	0.023179017
56	0x3e24bb76	0.16087136
57	0x3cbb5de1	0.022871913
58	0xb93eeb38	-0.00018207438
59	0x3e0b3a35	0.13596423
60	0xbd9433f5	-0.072364725
61	0x3e1dd915	0.15414841
62	0x3e204d94	0.15654594
63	0xbde74e94	-0.112942845
64	0x3d082c69	0.033245478
65	0x3e121730	0.14266658
66	0x3cf03b1c	0.02932506
67	0xbd5f637b	-0.05453823
68	0xbd90fb16	-0.07079141
69	0xbdafb7b5	-0.08579961
70	0x3cfa21ca	0.03053369
71	0x3cd3a460	0.025835216
72	0xbd847439	-0.0646748
73	0x3dba3f8f	0.09094154
74	0x3ddd4243	0.10803654
75	0x3c1ee056	0.009697041
76	0x3d704abb	0.05866502
77	0x3e34af5c	0.1764502
78	0x3e1c935a	0.15290585
79	0x3e0df205	0.13861854
80	0x3e5bd43b	0.21467678
81	0x3d8ead0f	0.06966602
82	0x3e506fc4	0.20355135
83	0x3e22265a	0.15834942
84	0x3e8e336c	0.27773607
85	0xbdc88673	-0.09791269
86	0x3e320d67	0.17387925
87	0x3e0ce33d	0.1375856
88	0xbe1174cf	-0.14204715
89	0x3e96bbce	0.2944016
90	0xbd3384e2	-0.0438279
91	0x3d255de9	0.040372763
92	0x3e126ecf	0.14300083
93	0xbdd18f2a	-0.102323845
94	0x39a2fdb9	0.00031088086
95	0x3e5c692c	0.21524495
96	0xbd91f090	-0.07125962
97	0xbe25725c	-0.16156906
98	0x3c487892	0.012235777
99	0xbe1899ca	-0.14902416
100	0xbcb283f0	-0.021791428
101	0x3dad0452	0.0844809
102	0x3cdee17d	0.02720713
103	0xbce0b7df	-0.027431427
104	0xbc4644e7	-0.012101389
105	0x3d1f6404	0.03891374
106	0x3ca7e0b8	0.020492896
107	0x3e21108b	0.15728967
108	0x3bcb96b8	0.0062130354
109	0xbd5c0b6e	-0.053721838
110	0xbd88b939	-0.066759534
111	0xbd766763	-0.06015719
112	0x3e414354	0.1887334
113	0x3da8ad74	0.082362086
114	0x3e21fa84	0.1581822
115	0x3da87c8e	0.08226882
116	0x3d35a50d	0.044346858
117	0xbd7ab3bc	-0.061206564
118	0x3e421e92	0.18956974
119	0xbcbad727	-0.02280767
120	0x3db9b18c	0.090670675
121	0x3e09cf66	0.13458022
122	0xbd45d615	-0.048299868
123	0x3dfab6a5	0.12241868
124	0x3d0f961e	0.035055272
125	0xbda3af1a	-0.07992382
126	0x3d03da73	0.03219075
127	0xbdeb8609	-0.115001746
128	0x3e2ca50c	0.16859835
129	0x3e3329ef	0.17496465
130	0xbd46fade	-0.04857909
131	0x3e14eb0a	0.14542785
132	0x3cafc3f2	0.021455739
133	0x3bb54468	0.0055318363
134	0x3d12514f	0.035722073
135	0xbd541631	-0.051778976
136	0x3d2bb77b	0.041923027
137	0x3d58b1da	0.052903987
138	0xbd9c58af	-0.076341026
139	0x3d5a386b	0.05327646
140	0xbcdefc28	-0.027219847
141	0x3d9fde9c	0.07806131
142	0xbc3add5d	-0.011405316
143	0x3df06475	0.11737911
144	0xbdadd4ac	-0.084878296
145	0xbd639785	-0.055564422
146	0xbdcd99c1	-0.10039092
147	0xbd8b7e3d	-0.068111874
148	0x3e0ceffb	0.1376342
149	0xbd68325b	-0.056688648
150	0xbe105ad6	-0.14097151
151	0x3df1bc3c	0.11803481
152	0xbe2ad079	-0.16681089
153	0x3bb17b08	0.005416278
154	0x3dc8a28c	0.09796628
155	0xbd8b2d23	-0.067957185
156	0xbc80ee12	-0.01573852
157	0xbce25043	-0.027626162
158	0x3d936b64	0.071982175
159	0x3d67706f	0.05650371
160	0xbd174a94	-0.036936358
161	0x3e1c3557	0.15254723
162	0x3d6331f1	0.05546755
163	0x3d08703f	0.03331017
164	0x3c885c78	0.016645655
165	0xbe449b06	-0.19199762
166	0x3da1a9e5	0.07893733
167	0x3cbc6e10	0.0230017
168	0xbdb2e6c9	-0.08735425
169	0xbd92ac44	-0.07161763
170	0x3be3aba8	0.0069479533
171	0xbd9f6665	-0.07783202
172	0x3c88f07f	0.01671624
173	0xbda22860	-0.07917857
174	0x3d009032	0.031387515
175	0x3d9176ab	0.07102712
176	0xbccf53f4	-0.025308587
177	0x3e1371e0	0.14398909
178	0x3d907cb9	0.07055039
179	0xbd510f00	-0.051039696
180	0xbe3d08cc	-0.18460387
181	0xbe1ee7b0	-0.1551807
182	0xbe1fbcc6	-0.15599355
183	0x3b364828	0.0027814005
184	0x3bb0360e	0.0053775376
185	0x3dd7b0e8	0.10531789
186	0x3e1fdc46	0.15611371
187	0x3d93be6e	0.07214056
188	0x3ce35cfe	0.027754303
189	0xbdd4fb4d	-0.10399494
190	0x3cca006f	0.02465841
191	0x3e0cf01e	0.13763472
192	0x3e36fd4c	0.17870063
193	0x3d986027	0.074402146
194	0xbe0ff8fc	-0.14059824
195	0x3be67b1c	0.0070337187
196	0xbd9a638a	-0.07538517
197	0x3d8d1055	0.06887881
198	0x3dbbceae	0.091702804
199	0x3d2777c3	0.040885698
200	0xbc86f324	-0.01647336
201	0xbe33561c	-0.17513317
202	0x3dbacb54	0.09120813
203	0x3d756d37	0.05991861
204	0x3e2a5315	0.16633256
205	0xbd1ba361	-0.037997607
206	0x3d04d1ce	0.032426648
207	0x3e82d0be	0.25549883
208	0x3e5c6100	0.21521378
209	0x3e33ce56	0.1755918
210	0xbd84d6b1	-0.06486262
211	0xbdaaea93	-0.08345523
212	0x3db4f28d	0.088353254
213	0x3dcc6931	0.09981001
214	0x3e53db07	0.20689021
215	0x3d27a057	0.040924396
216	0xbde11d4f	-0.10991918
217	0x3e6edb7b	0.23325913
218	0xbdba0829	-0.09083588
219	0x3d994a08	0.074848235
220	0x3e3936de	0.18087336
221	0xbe0b7a87	-0.13620959
222	0xbcbaebaa	-0.022817452
223	0x3df6279d	0.120192744
224	0x3c1f7b05	0.00973392
225	0x3da15d1c	0.07879087
226	0xbc19f994	-0.009397883
227	0xbd0e02fd	-0.03467082
228	0x3cb1b209	0.02169134
229	0xbdcbbf2b	-0.09948572
230	0x3d5392fd	0.05165385
231	0xbd64c0d1	-0.055847947
232	0xbe31ac39	-0.17350854
233	0x3c148d16	0.009066841
234	0x3e084fc1	0.13311674
235	0x3e26d5bf	0.16292475
236	0xba14d728	-0.0005677813
237	0xbcc4ae82	-0.024008993
238	0xbe2c51a4	-0.16828018
239	0xbdde9c08	-0.10869604
240	0xbd9b7b0d	-0.075918294
241	0x3dd33b3d	0.10314033
242	0xbde79158	-0.11307019
243	0xbe00185f	-0.12509297
244	0xbcfa754e	-0.030573513
245	0xbdbb986a	-0.0915993
246	0xbcc9bbb8	-0.024625644
247	0xbdcd7774	-0.100325495
248	0xbe1e0e01	-0.1543503
249	0xbd42f6fa	-0.047598816
250	0x3c94b07c	0.01815056
251	0x3d84e915	0.06489769
252	0xbd810a1b	-0.063007556
253	0x3c96407d	0.018341297
254	0xbe32cda4	-0.17461258
255	0x3c06fb83	0.008238676

model.2.bias f4 [32]
0	0xbd7d8d2c	-0.06190221
1	0xbddf48b6	-0.109025404
2	0x3e818526	0.25296897
3	0x3db0b8ea	0.086290196
4	0x3cc143fe	0.023591992
5	0x3b9d526d	0.0048010857
6	0x3e5e5eb8	0.2171582
7	0x3e243ad3	0.16038065
8	0xba4731a4	-0.00075986446
9	0x3dd34705	0.1031628
10	0x3d1bf6df	0.03807723
11	0x3e8438ea	0.25824672
12	0x3d5678c5	0.05236127
13	0x3e4b0429	0.19825806
14	0xbde2a6fe	-0.110670075
15	0x3df8324d	0.12118969
16	0x3e14265d	0.1446776
17	0xbde8d429	-0.11368591
18	0xbe3362b2	-0.17518118
19	0x3e38a209	0.18030562
20	0xbdce16bd	-0.10062931
21	0xbd22de67	-0.03976288
22	0xbdef6f98	-0.11691207
23	0x3c614bbe	0.0137509685
24	0x3e171a93	0.14756231
25	0xbd69cf4e	-0.057082467
26	0x3de87582	0.11350538
27	0x3dcba209	0.09943015
28	0x3dc889c3	0.09791901
29	0xbd744d75	-0.05964418
30	0xbde504fc	-0.11182591
31	0x3d2794a7	0.04091325

model.4.weight f4 [4, 32]
0	0xbd52e740	-0.05149007
1	0xbd88af5b	-0.066740714
2	0xbe691512	-0.22761944
3	0x3d14063f	0.03613877
4	0x3e22b43d	0.15889068
5	0x3c954ee9	0.018226104
6	0xbd8e8dd1	-0.06960643
7	0xbd677e5a	-0.056516983
8	0x3c7f2e76	0.015575042
9	0xbcb08f79	-0.021552788
10	0x3c8a9934	0.016918756
11	0xbcca84a2	-0.024721447
12	0xbdf108da	-0.117692664
13	0xbe9a8963	-0.30182943
14	0xbe322bd0	-0.17399526
15	0xbdd44c17	-0.103660755
16	0xbdeca950	-0.11555731
17	0xbd4e80b7	-0.05041572
18	0xbca661ba	-0.020310272
19	0xbe5cd1fc	-0.21564478
20	0x3e33d86e	0.1756303
21	0x3d1c0841	0.03809381
22	0x3dea94bc	0.1145415
23	0x3cb90ccb	0.022589108
24	0xbe1fe4af	-0.1561458
25	0x3e16fb5a	0.1474432
26	0x3dc68e9c	0.09695169
27	0xbe8c452f	-0.27396533
28	0x3de55d57	0.11199444
29	0x3e100d6b	0.14067619
30	0xbe323241	-0.17401983
31	0xbe69c544	-0.22829157
32	0xbc8e386c	-0.017360888
33	0x3d8cc19f	0.06872868
34	0xbe5efada	-0.2177538
35	0xbe13df38	-0.1444062
36	0x3c65e499	0.014031553
37	0xbe0d2182	-0.13782313
38	0xbd245fef	-0.040130552
39	0x3d82f16f	0.06393706
40	0x3d911e52	0.07085861
41	0x3d7a0360	0.061038375
42	0x3c272a8b	0.010203014
43	0xbe511561	-0.20418312
44	0xba95c871	-0.0011427534
45	0xbc9bbee1	-0.019011917
46	0x3dba59d2	0.09099163
47	0xbe201fb1	-0.1563709
48	0xbe873caa	-0.2641347
49	0xbcb5886d	-0.02215978
50	0x3d18466c	0.037176535
51	0xbe8342af	-0.25636813
52	0xbd4b50bd	-0.049637545
53	0x3df8b3e7	0.12143689
54	0xbe2068bc	-0.15664953
55	0xbe83a028	-0.25708127
56	0xbda9ba67	-0.082875066
57	0xb93fe41f	-0.00018300161
58	0xbcdfe3e9	-0.027330356
59	0xbe2b0934	-0.1670273
60	0xbc82430e	-0.015901115
61	0x3cfef1ef	0.031121222
62	0x3e1a5f83	0.15075497
63	0xbe9b1674	-0.30290568
64	0x3e548474	0.20753652
65	0xbd6409a1	-0.055673245
66	0x3d8f2c2c	0.06990847
67	0x3e7a3f33	0.24438171
68	0xbdf7998f	-0.12089836
69	0xbdc8e280	-0.098088264
70	0x3e0f53e2	0.13996843
71	0xbdb50ece	-0.088407144
72	0x3e436893	0.1908286
73	0x3e473cd8	0.19456804
74	0x3dabbf20	0.083860636
75	0x3e6da53b	0.23207562
76	0xbdc46984	-0.09590438
77	0x3e76b0b7	0.24090849
78	0xbe25fe77	-0.16210352
79	0x3dfb1170	0.12259185
80	0x3e482f71	0.19549347
81	0x3ddde15e	0.10834001
82	0xbcb0af52	-0.021567974
83	0x3e4ee0af	0.20202897
84	0x3d4280cd	0.047486115
85	0x3cbae564	0.02281446
86	0xbe28bd82	-0.16478541
87	0x3d7ecfff	0.06221008
88	0x3dba8cd3	0.09108891
89	0x3dd4b032	0.10385169
90	0xbcefabc7	-0.029256715
91	0x3e22c982	0.15897182
92	0xbb9aacc9	-0.0047203046
93	0xbcb032ae	-0.021508541
94	0xbd1b231e	-0.037875287
95	0x3e4ba0dd	0.19885583
96	0xbe65593a	-0.22397318
97	0x3d0b095e	0.03394448
98	0xbe0a7ab7	-0.13523374
99	0xbdb6187a	-0.08891387
100	0x3d97769f	0.07395672
101	0xbe2abb07	-0.16672908
102	0xbe8e5cfb	-0.27805313
103	0xbdf5385a	-0.11973639
104	0xbe863d3c	-0.26218593
105	0xbe93043f	-0.28714177
106	0xbe219d33	-0.15782623
107	0xbe6323fa	-0.22181693
108	0xbe3b458b	-0.18288247
109	0xbe97e641	-0.29667857
110	0xbe027268	-0.12738955
111	0xbe3b831a	-0.1831173
112	0xbd828ac2	-0.06374122
113	0x3e07d3df	0.13264416
114	0xbd9ec907	-0.07753187
115	0xbc73a28c	-0.014870297
116	0xbe0f9845	-0.1402293
117	0x3de3a263	0.11114957
118	0xbe0c5446	-0.13704023
119	0xbe880dd0	-0.26573038
120	0xbe60141c	-0.21882671
121	0x3d2c9851	0.042137448
122	0xbdab00fd	-0.08349798
123	0xbeafc04f	-0.34326407
124	0x3dc0f148	0.09421021
125	0xbdde519f	-0.10855412
126	0x3de3daaf	0.11125695
127	0xbd02dea4	-0.031950608

model.4.bias f4 [4]
0	0xbdefae3b	-0.11703154
1	0x3bbfa96b	0.0058490536
2	0xbdaebce6	-0.08532123
3	0xbe19137e	-0.14948842
