model_blue.pth (torch, 8121 bytes, 6 tensors)

model.0.weight f4 [32, 1]
-0.6326761 0.99500304 1.068919 0.8275066 -1.0168093 0.74666005 -0.19982484 0.9779974
-0.17226326 0.65923095 -0.5594361 -0.87082106 -0.30022335 -0.61502486 -1.0689765 -0.18413615
0.7953653 -0.4044559 0.74818647 -0.59004855 0.19417775 -0.5881016 0.26289207 0.83898294
-0.24827333 0.9573694 -0.32357326 -0.2979852 0.5346135 0.93747014 0.71827 0.008085966
00000000: 10f7 21bf 85b8 7e3f 56d2 883f 79d7 533f
00000010: cf26 82bf 1d25 3f3f e29e 4cbe 0a5e 7a3f
00000020: c865 30be 5cc3 283f 3437 0fbf 21ee 5ebf
00000030: e0b6 99be 4572 1dbf 39d4 88bf 308e 3cbe
00000040: 0f9d 4b3f d814 cfbe 2689 3f3f 6c0d 17bf
00000050: 88d6 463e d48d 16bf ca99 863e 96c7 563f
00000060: 5d3b 7ebe 2916 753f 65ab a5be 8491 98be
00000070: 6edc 083f 0bfe 6f3f 8be0 373f 007b 043c

model.0.bias f4 [32]
-0.6650648 0.2140125 0.4391309 0.08000499 -0.08974755 0.6285942 0.47064403 -0.035291743
-0.9210888 -0.8089987 -0.6175389 -0.836872 -0.45093942 0.96664876 -0.11714151 -0.3993255
0.83311653 0.36934578 -0.2606325 -0.6110537 -0.2001276 0.10686719 0.7300197 -0.9387578
0.019700235 0.06958121 0.2701241 1.0959675 -0.90692973 -0.29594076 0.27237076 -0.25485456
00000000: b041 2abf 1826 5b3e c4d5 e03e a8d9 a33d
00000010: 90cd b7bd 8deb 203f 41f8 f03e 138e 10bd
00000020: 7acc 6bbf 8a1a 4fbf 0817 1ebf 3e3d 56bf
00000030: 88e1 e6be 4b76 773f e3e7 efbd 6474 ccbe
00000040: 2047 553f e41a bd3e 9f71 85be 046e 1cbf
00000050: 40ee 4cbe 2fdd da3d 92e2 3a3f 6e52 70bf
00000060: 6362 a13c 9880 8e3d b54d 8a3e aa48 8c3f
00000070: 8c2c 68bf 8c85 97be 2e74 8b3e 4c7c 82be

model.2.weight f4 [32, 32]
-0.13111173 0.066276975 0.12901433 0.015607083 0.04975155 -0.1590241 0.15248384 -0.04944544
-0.06285467 0.093750164 -0.048303574 -0.007658335 0.1726542 0.024615193 0.14139745 -0.010776949
-0.15709005 -0.04701953 0.0035619144 -0.0334026 -0.11181691 -0.13091247 -0.10745657 0.09295658
-0.08388308 0.11696863 -0.11072959 -0.124350585 0.120242305 0.014058039 -0.05203901 0.021347757
-0.002877281 0.027485026 0.05870379 0.11391207 0.083247416 -0.07162139 0.22812624 0.17985779
0.075798914 0.13113454 -0.03790129 -0.014825534 0.14977916 0.23351578 0.12753907 0.14430141
0.20517012 0.16541126 0.00746567 0.12603928 -0.07068776 0.0769558 -0.05342449 -0.108967975
0.132879 0.10177887 0.23608063 0.2534492 -0.08313837 -0.005823768 0.20490232 0.15790811
0.13882563 0.08321978 0.042999003 -0.0039108903 -0.16469604 -0.0853047 -0.161617 0.11610895
-0.14708693 -0.017900735 -0.119768426 0.101041734 0.0433564 -0.13897829 0.07979248 0.05465521
-0.13686699 -0.024138248 -0.20723458 -0.026089279 -0.050535694 -0.0494243 0.12903006 -0.079019204
-0.104965985 0.08282793 -0.103007145 0.07225493 0.03522979 0.12050747 -0.077119686 0.08469759
0.08828418 -0.029524814 0.017744353 -0.13876513 0.0002687735 -0.08598956 -0.09131061 -0.013615668
0.019823264 -0.0049795024 -0.104278594 -0.0095828865 -0.062439144 -0.085297 0.03375036 -0.13205972
0.06516665 -0.0030921418 -0.05134858 -0.17563957 0.10196901 -0.114975594 -0.05602178 0.1147371
-0.035636656 -0.13968918 0.11981549 -0.0482882 0.158257 -0.08464638 -0.04652711 -0.11343384
0.059828 0.08913017 0.11086153 -0.05438787 -0.014828484 0.06651135 -0.16563378 0.030159906
0.15441366 -0.04750304 0.115900815 0.08617096 -0.14990489 0.09214216 0.034452308 0.02808354
-0.17394389 0.15045485 0.14292158 0.15907495 -0.043242645 -0.12447009 0.14525011 -0.085792795
0.06352156 -0.11776173 -0.051044386 -0.14138417 -0.12229329 0.07691454 0.05315864 -0.019061355
-0.03148283 0.12473831 -0.1567402 -0.076131076 -0.17053019 0.091408886 -0.04809543 -0.030377572
-0.06434024 -0.1595526 -0.066550694 -0.13697079 0.10110336 -0.0029918994 0.06390579 0.009212606
-0.16761737 -0.036959793 -0.029432703 0.116558395 0.14355065 0.025156843 0.055054594 0.03577296
-0.052117296 -0.09922279 -0.12466121 -0.044422083 -0.07781408 -0.111805305 0.14763318 -0.055318475
0.16243713 -0.085652314 0.09530215 -0.0141793825 -0.10174456 0.09754497 -0.07035389 0.1551148
-0.099653944 0.030263755 0.12396446 0.07592831 0.13456488 -0.03737863 0.16523565 0.09810648
-0.010318074 -0.109785326 0.13177799 0.0020137343 0.064460635 -0.010188235 0.1500059 -0.08541036
-0.1385701 0.1113909 0.08326829 0.12179416 0.008597683 0.04000505 -0.029181765 -0.16753353
0.13613984 -0.12068988 -0.15308405 0.00051311677 0.10173836 0.011567518 -0.14283697 -0.099848054
0.12099538 -0.04751724 -0.10243639 -0.085809 -0.06401514 -0.06902223 -0.017625896 -0.0127079915
-0.04530428 -0.036655705 0.07007386 0.010676323 -0.079991765 0.05223339 0.17478007 0.034392964
-0.10170744 -0.0047193724 -0.07882932 -0.1585572 -0.008719382 -0.0006498201 -0.12661584 -0.09629889
00000000: 2742 06be 39bc 873d 551c 043e dab4 7f3c
00000010: 48c8 4b3d 37d7 22be b924 1c3e 4d87 4abd
00000020: f3b9 80bd 1600 c03d f8d9 45bd c5f2 fabb
00000030: 43cc 303e cda5 c93c 7eca 103e cd91 30bc
00000040: 37dc 20be 8d97 40bd 026f 693b 2ad1 08bd
00000050: 4400 e5bd eb0d 06be 3112 dcbd 0560 be3d
00000060: e4ca abbd 408d ef3d 32c6 e2bd 85ab febd
00000070: 9941 f63d b053 663c db26 55bd 7ee1 ae3c
00000080: c490 3cbb 4728 e13c 6373 703d bb4a e93d
00000090: 9f7d aa3d 3cae 92bd ed99 693e a42c 383e
000000a0: 763c 9b3d 2248 063e 623e 1bbd cce6 72bc
000000b0: b55f 193e c31e 6f3e 9a99 023e c0c3 133e
000000c0: 1e18 523e 9261 293e 94a2 f43b 7110 013e
000000d0: bfc4 90bd 019b 9d3d a3d3 5abd 9a2a dfbd
000000e0: 6f11 083e 7171 d03d 1fbf 713e 18c4 813e
000000f0: 7344 aabd 4fd5 bebb ead1 513e aab2 213e
00000100: 4e28 0e3e 226f aa3d b91f 303d ed26 80bb
00000110: 14a6 28be 3bb4 aebd ed7e 25be 87ca ed3d
00000120: f59d 16be 90a4 92bc 2649 f5bd f8ee ce3d
00000130: 7b96 313d 5350 0ebe 3d6a a33d 24de 5f3d
00000140: dc26 0cbe 93bd c5bc 4d35 54be 2fb9 d5bc
00000150: 84fe 4ebd 2371 4abd 7520 043e d2d4 a1bd
00000160: 68f8 d6bd b1a1 a93d 69f5 d2bd 65fa 933d
00000170: 1d4d 103d 9fcc f63d edf0 9dbd ee75 ad3d
00000180: 56ce b43d 06de f1bc 9b5c 913c 7218 0ebe
00000190: 2bea 8c39 4b1b b0bd 0f01 bbbd 4014 5fbc
000001a0: 6664 a23c 182b a3bb 0490 d5bd 8a01 1dbc
000001b0: 30c0 7fbd 32b0 aebd d13d 0a3d aa3a 07be
000001c0: 1876 853d 88a5 4abb e352 52bd dcda 33be
000001d0: 21d5 d03d 5378 ebbd 1877 65bd 49fb ea3d
000001e0: bef7 11bd ae0a 0fbe d361 f53d d9c9 45bd
000001f0: 1f0e 223e 155b adbd 3693 3ebd 0050 e8bd
00000200: 340e 753d e189 b63d 5f0b e33d d1c5 5ebd
00000210: 2bf3 72bc 1a37 883d e79b 29be e811 f73c
00000220: 9d1e 1e3e 8c92 42bd 685d ed3d 667a b03d
00000230: ab80 19be 07b5 bc3d dd1d 0d3d 740f e63c
00000240: 591e 32be d610 1a3e 095a 123e 8be4 223e
00000250: 331f 31bd 2dea febd 72bc 143e 22b4 afbd
00000260: 9717 823d 102d f1bd eb13 51bd 03c7 10be
00000270: e874 fabd 5f85 9d3d e0bc 593d 8f26 9cbc
00000280: 24f4 00bd cd76 ff3d 8180 20be 9cea 9bbd
00000290: 779f 2ebe 9534 bb3d b7ff 44bd 63da f8bc
000002a0: d1c4 83bd c261 23be bb4b 88bd 1242 0cbe
000002b0: 470f cf3d be13 44bb 0ae1 823d 78f0 163c
000002c0: e3a3 2bbe 2763 17bd da1c f1bc 2bb6 ee3d
000002d0: f1fe 123e b915 ce3c ed80 613d ab86 123d
000002e0: f278 55bd 5135 cbbd 604e ffbd eef3 35bd
000002f0: fd5c 9fbd 2efa e4bd 272d 173e a095 62bd
00000300: eb55 263e 7b6a afbd c62d c33d a450 68bc
00000310: 745f d0bd a8c5 c73d b315 90bd 6ad6 1e3e
00000320: 5e17 ccbd b2eb f73c 14e1 fd3d 4d80 9b3d
00000330: 60cb 093e 561a 19bd 8933 293e 0dec c83d
00000340: 240d 29bc 21d7 e0bd cff0 063e dbf8 033b
00000350: f003 843d 8eec 26bc 269b 193e a0eb aebd
00000360: 52e5 0dbe ea20 e43d 9188 aa3d 376f f93d
00000370: 4cdd 0c3c 56dc 233d 990e efbc e98d 2bbe
00000380: 3e68 0b3e 412c f7bd 11c2 1cbe af82 063a
00000390: 345c d03d b085 3d3c db43 12be 237d ccbd
000003a0: 6dcc f73d 70a1 42bd 2cca d1bd a1bc afbd
000003b0: 5f1a 83bd 875b 8dbd 2f64 90bc 2e35 50bc
000003c0: fb90 39bd 4b24 16bd e282 8f3d bfeb 2e3c
000003d0: b9d2 a3bd aef2 553d 8cf9 323e a3df 0c3d
000003e0: fe4b d0bd f7a4 9abb 4471 a1bd d25c 22be
000003f0: bddb 0ebc b058 2aba 95a7 01be 5a38 c5bd

model.2.bias f4 [32]
0.030333465 0.09196406 -0.14539994 0.13591951 -0.17587793 0.10357565 -0.15904015 0.1285839
0.17831403 0.2415247 -0.009105911 -0.1331543 -0.0909353 0.05175797 -0.07330588 -0.032325204
0.011131489 0.25018814 -0.0038786563 -0.03647154 0.14291595 -0.15393686 0.14039461 0.01778083
-0.10533058 -0.04849387 0.25586048 0.2723292 0.23764405 -0.13947488 0.07199418 0.1281217
00000000: e37d f83c a757 bc3d b9e3 14be 7c2e 0b3e
00000010: 5819 34be 781f d43d 6cdb 22be 7fab 033e
00000020: f497 363e 4052 773e f530 15bc 9a59 08be
00000030: 493c babd 2a00 543d 6521 96bd 6f67 04bd
00000040: d960 363c a918 803e 0e31 7ebb 2e63 15bd
00000050: 8f58 123e a0a1 1dbe 9bc3 0f3e 1aa9 913c
00000060: 8fb7 d7bd 82a1 46bd 2500 833e bc6e 8b3e
00000070: f658 733e 81d2 0ebe af71 933d 5632 033e

model.4.weight f4 [4, 32]
-0.051072475 -0.047354765 0.048627358 0.18127456 0.038290873 0.11227794 0.076815546 -0.11293926
-0.09427 -0.30393413 -0.15020344 0.0092322035 -0.08149031 -0.12803961 0.011590313 -0.27823135
0.06949849 -0.16860902 -0.029967507 -0.016160399 -0.0027106514 -0.17755985 0.014829073 -0.101628914
0.042082574 0.050385818 -0.07370623 -0.0602497 0.0122141745 -0.1429851 0.14239375 -0.122171864
0.14136487 -0.047216367 -0.042193428 -0.06352834 0.15133485 0.15978749 0.05014583 0.019621676
0.081533775 -0.16228244 0.051576592 -0.083746694 -0.05267061 0.06836928 0.09485523 0.08888889
0.04957582 -0.111519724 -0.027982473 -0.096739925 0.05324591 -0.19568633 -0.19698077 -0.011267547
0.17207938 0.061771978 -0.15442866 -0.028847601 0.014446638 0.010330705 0.011062375 0.06358177
-0.16308874 0.2870262 -0.026135942 -0.103577666 -0.14554259 0.12624083 0.02422329 0.04842913
0.15214996 0.2444845 -0.006442778 -0.05126024 0.058037437 -0.007013649 -0.09048144 0.056980208
-0.16825978 0.18816987 -0.0013038565 0.15098667 0.2747321 -0.14427282 0.09131696 -0.091753334
-0.090745665 -0.12877409 0.30566394 0.24119805 0.22607525 0.025446601 -0.015852375 -0.08513162
0.11769914 0.014448236 0.024114046 -0.035039 0.12510905 -0.1137495 -0.16951904 -0.02920528
-0.114021294 -0.14091997 0.011438929 0.15985057 -0.10828976 -0.23039415 -0.029879062 -0.19463168
-0.15539366 0.02028793 0.11828766 -0.01122772 -0.17908601 -0.07201084 -0.22404628 0.16378908
-0.07596263 -0.15279014 -0.05746773 -0.07574757 -0.21377677 -0.082144745 0.036253367 -0.19399053
00000000: 5f31 51bd 12f7 41bd 7b2d 473d 0aa0 393e
00000010: e4d6 1c3d faf1 e53d 7851 9d3d b34c e7bd
00000020: a110 c1bd 419d 9bbe eece 19be ab42 173c
00000030: 64e4 a6bd d11c 03be 4ce5 3d3c 5774 8ebe
00000040: 3955 8e3d d8a7 2cbe 6b7e f5bc d062 84bc
00000050: 2fa5 31bb 40d2 35be a4f5 723c d222 d0bd
00000060: c75e 2c3d 5c61 4e3d 4bf3 96bd 64c8 76bd
00000070: f61d 483c b06a 12be abcf 113e 3e35 fabd
00000080: f4c1 103e f365 41bd 04d3 2cbd 251b 82bd
00000090: 86f7 1a3e 559f 233e b765 4d3d a3bd a03c
000000a0: 2efb a63d 5e2d 26be fa41 533d 6383 abbd
000000b0: 23bd 57bd 3105 8c3d 7543 c23d 610b b63d
000000c0: 0410 4b3d 7464 e4bd 803b e5bc 951f c6bd
000000d0: 6218 5a3d ff61 48be 54b5 49be 849b 38bc
000000e0: 9435 303e 9d04 7d3d 8c22 1ebe ce51 ecbc
000000f0: 97b1 6c3c 1e42 293c f73e 353c 2937 823d
00000100: bc00 27be 19f5 923e 0b1b d6bc 8720 d4bd
00000110: 1e09 15be 4745 013e ec6f c63c a05d 463d
00000120: 33cd 1b3e 255a 7a3e f01d d3bb 42f6 51bd
00000130: aab8 6d3d c1d2 e5bb 554e b9bd 1464 693d
00000140: 4b4c 2cbe 9aaf 403e 2ae6 aaba 409c 1a3e
00000150: b0a9 8c3e 41bc 13be 6304 bb3d 2ce9 bbbd
00000160: ddd8 b9bd 5bdd 03be fc7f 9c3e 9ffc 763e
00000170: 4580 673e 6475 d03c d7dc 81bc 7d59 aebd
00000180: 3f0c f13d 4bb8 6c3c d28a c53c 0e85 0fbd
00000190: 961c 003e 7ff5 e8bd 6696 2dbe e93f efbc
000001a0: ff83 e9bd 534d 10be 586a 3b3c deaf 233e
000001b0: 06c7 ddbd 72ec 6bbe efc4 f4bc 874d 47be
000001c0: 841f 1fbe df32 a63c cd40 f23d 79f4 37bc
000001d0: 5362 37be 6b7a 93bd 636c 65be 53b8 273e
000001e0: 4c92 9bbd 0575 1cbe 4863 6bbd 8b21 9bbd
000001f0: 4ce8 5abe 813b a8bd 697e 143d 74a5 46be

model.4.bias f4 [4]
-0.005745806 0.011094238 0.17261603 -0.30011263
00000000: 5047 bcbb 9bc4 353c 42c2 303e 5da8 99be
